ML/Digit Recognition/mnist_cnn.pth (torch, 830435 bytes, 8 tensors)

conv1.weight f4 [16, 1, 3, 3]
00000000: b1de e13d 741d 213e f717 403c 3ff4 633e
00000010: 6d18 2abe 8375 013e dddf 143e 3157 103e
00000020: 7f6e 51bd b8a1 5d3f 220d b7bd 8a92 24bf
00000030: 6c52 debe d2b2 7fbf 63a5 01be 7ae5 e2be
00000040: c9d2 ea3d 8c7f 473f 6d8d 0ebf a1aa 2cbe
00000050: bf68 603f c583 debe 69d5 78bf 961f f4be
00000060: 656f 3f3f 2558 a4bd 392a 0abf 59e8 533f
00000070: a4e1 06bf 6184 1cbf d2a6 f53e 6fb2 38bf
00000080: 9ed7 79bf c918 3a3e 20ce 10bf a1ea 06bf
00000090: 9d1b b83d 9578 163f 497d 96bd 12a2 e43e
000000a0: ce55 3c3e e26e bcbe bc8d c4bd 1e5a 2ebe
000000b0: 3169 22bf 9ecb 083f 34bb cd3e 5e43 133f
000000c0: d9f4 0dbf 4553 f6be 20fe 95be f669 10bf
000000d0: ae22 b6bd c2b2 17bf 0f7c e5be 87e0 18bf
000000e0: f995 e0bd 0e14 76ba aaa5 9f3e 749c 3bbe
000000f0: 8ec4 0a3f 8b88 2e3e 842c 9b3e 1a3c 353d
00000100: d3ec ac3e 5682 223f 4518 d2be 50b3 bebe
00000110: b85c eebc 65cf e7be 3106 d4bd 261e e23e
00000120: b536 8c3e 58fd c7be 202d ba3d fcd2 b03c
00000130: 8ef3 90be 01ce 763e a08e df3c 296f d1be
00000140: 7da0 863e 773f 6e3d 4508 ebbc 79e9 bebe
00000150: 86b8 e83a e347 f4bd b4af d3be ceab c33e
00000160: b0e4 a93e ba93 3b3e aee9 17bf 6b64 a3be
00000170: 97c8 b53e f581 89be 2b5c a63e ad6f 213f
00000180: 99b0 e6bd 6afc bebd a6df 803d 3cb7 433e
00000190: b0f6 e53e 5e78 c63e 85ad 70be 64a6 763e
000001a0: a71e 033d 6bfb e6be 2c71 bfbe a060 92be
000001b0: 4a84 10bf ef2a 74bf e559 fcbe f846 1fbf
000001c0: 4f23 35bd 80d8 ef3e 87b6 14bf 381e 40bd
000001d0: 61f3 2f3f 00e1 7f3e 8dd8 fdbe 35b1 02bf
000001e0: e7df 1f3f c839 003e 4ad1 c2be 6c48 173f
000001f0: 1e95 17bc 0324 8ebd 6057 313e afad eabe
00000200: 1f92 35bf 742f 66bf 3ce7 cabf 3c39 21bf
00000210: af5c cabe 09c3 b7be 2784 e5bc 0000 0dbf
00000220: 837b 8fbe 7602 79be 5f43 293e 06b3 37be
00000230: dd16 f23e 3fe4 e4bd 5362 e23e 54af 903e
0.11028803 0.15733892 0.011724464 0.22261141 -0.1661088 0.12642483 0.14538522 0.14095761
-0.051130768 0.8657489 -0.08938052 -0.642861 -0.43422258 -0.99882233 -0.12660746 -0.44315702
0.11465985 0.77928996 -0.5568455 -0.16861965 0.8765983 -0.43459907 -0.9720064 -0.47680348
0.7477935 -0.08024625 -0.53970677 0.8277641 -0.5268805 -0.61139494 0.47978836 -0.7214727
-0.9759463 0.18173517 -0.5656452 -0.52701765 0.08989642 0.58777744 -0.07348115 0.446549
0.18392107 -0.36803347 -0.09597346 -0.17026564 -0.6344176 0.53435695 0.40181887 0.5752467
-0.5545173 -0.48110405 -0.29295444 -0.56411684 -0.088933334 -0.5925714 -0.44821212 -0.597176
-0.10966105 -0.00093871437 0.3118108 -0.18321401 0.5420617 0.17044275 0.303074 0.04424677
0.33774433 0.63480127 -0.4103414 -0.3724618 -0.029096946 -0.45275417 -0.103527434 0.44163626
0.27385488 -0.39060473 0.09090638 0.02158498 -0.28310817 0.24102022 0.027289689 -0.4090512
0.26294318 0.058165994 -0.028690467 -0.372875 0.0017755188 -0.11927774 -0.41344988 0.38217014
0.33182287 0.18318072 -0.5934094 -0.3191255 0.355046 -0.26856962 0.32492194 0.6306103
-0.11264152 -0.09325488 0.062926576 0.19112867 0.4491477 0.38763708 -0.23503692 0.2408691
0.032011654 -0.45113692 -0.3739103 -0.28589344 -0.5645186 -0.9537801 -0.49287334 -0.62217665
-0.044223126 0.46844864 -0.58091015 -0.04690382 0.6873074 0.24988174 -0.49579278 -0.51051646
0.6245102 0.12522042 -0.380503 0.5909488 -0.009251861 -0.069404624 0.17318487 -0.45835635
-0.7092609 -0.8991616 -1.5851817 -0.6297796 -0.39523837 -0.35890988 -0.028017117 -0.55078125
-0.2802392 -0.24317345 0.16529606 -0.17939386 0.47283068 -0.11176347 0.4421564 0.28258765

conv1.bias f4 [16]
00000000: 3940 7ebc 3bb9 6ebd 0f22 123e 1ea5 833d
00000010: 7171 d8ba 8311 eabd 744f 163c d0b0 4cba
00000020: b235 8cba fb4e a5ba 94b9 3f3b 4f67 00bb
00000030: f3eb 2cbb f00d 763b 2d0c 773e 526d 80b8
-0.015518242 -0.05828212 0.14270805 0.06427978 -0.00165133 -0.11429121 0.009174217 -0.00078083295
-0.0010697155 -0.0012612039 0.00292549 -0.0019592827 -0.0026385754 0.0037544928 0.24125738 -6.123878e-05

conv2.weight f4 [32, 16, 3, 3]
00000000: b1d2 7f3e afed 2dbe 6e3a 07be d83d 853d
00000010: 339f fbbd 740e 283e c29c 593d d170 f73d
00000020: a7cd 903d 7fd3 8d3d c43c f0be e007 77be
00000030: 747b 02be d990 e63d b361 3fbe 3b4b 433e
00000040: 4a59 083f 07e0 403f 7f5f 8c3d a6fe 803e
00000050: f689 213d a3fd 66be 5a83 aabd aa34 9ebf
00000060: 9fec 9dbe b9eb 25bf 24fb 3cbf 1ff6 f6be
00000070: 3a93 3cbf 6858 b3be 69e4 9cbe 873a aabe
00000080: f328 01be 83b1 6f3d cad1 84be 8a33 343f
00000090: b0ad 033f 2600 073e e029 c6be b526 b63e
000000a0: 738f fcbe 846c 893e 54af 4abe e30c c53e
000000b0: 5c78 683e 62f5 f53e 6623 b83e 7d42 13bf
000000c0: ea91 593e b18f e2be 008d 75bf 8ee8 dbbc
000000d0: 7a8b c4bd f028 72bd 9921 423f adbf 40be
000000e0: eae1 45be e823 0fbe 853a 2bbd 0c29 6cbd
000000f0: a1b8 993e 8444 52bc a48b dbbe 8cb9 1cbe
00000100: 4dd8 2a3e 7288 f33e d7a7 ed3d 81c9 5f3e
00000110: c404 493e 82d1 dbbc 1da4 44be 272d f7be
00000120: 0503 26be 24d1 b13d 2ad2 ad3d d5ae 6abe
00000130: 1ae6 7e3e 73d1 063f 425b 0d3e 2ada 783e
00000140: 053a b03e 8f49 543e dd30 06be efa4 913c
00000150: 3fea 44be 0a5e bcbe 8dbe 48be 4132 98bc
00000160: 47be b0be b773 9dbe c2a4 fcbd 9239 02bf
00000170: 1298 15be d036 06bf 8357 713e 6266 013f
00000180: 28c7 8b3e b76d 883e abbd b03c c274 eb3e
00000190: 0761 933e 71cb 37be dca4 a63e ebfc 9abe
000001a0: 99fb ccbd 38d8 8ebe 9717 b0bd 3e3f 84bd
000001b0: 87cf 19bf 87cc 48bf 0cc9 d8be 32c7 7bbe
000001c0: 33a2 9f3d 8976 8e3e 18b6 10bd 0d3c e53e
000001d0: 7e3f 093f 195b 6d3e 6ef8 edbd 6edf a53d
000001e0: 2bee 66be 6eee e1bd e621 443e 7cfb 10be
000001f0: 0df7 89bb 1881 ec3a 155a a5be e1f4 e7be
00000200: 2584 2fbf 12ac 29be fc3e cfbd 256d adbf
00000210: d4e9 36bd 6426 11bf a732 4c3c 6e69 c53e
00000220: c251 d2be 8767 78be 0de3 9bbe fac4 203e
00000230: 77e5 133e 09dc be3e f55d 8d3e 27c8 89bd
00000240: 93ca 82be 9932 a93c 1438 1fbc ad03 17bd
00000250: 2172 a5bd b081 8bbe e482 adbd bd15 7abd
00000260: b90e ecbc 2da8 6b3f 19ac 9b3f bac8 063f
00000270: 0d81 433f 7eec ce3e 1265 ab3e c372 253f
00000280: 9eda f13e a3f3 873e 2613 77bc 8f6e b1be
00000290: cf1e f8bc fd7b 96bd 155d b73d 51d5 413e
000002a0: 8244 4ebd 0823 193e 4c46 b03d 4cc2 c6bb
000002b0: 4c3a 0d3a cddd 1b3e 91a5 b9bd ec71 5b3e
000002c0: eeae 50bd a000 df3d 0e7e 19bc 1c6e bbbe
000002d0: 87a5 4abd 8528 8e3e be45 e5bd b3ba 903d
000002e0: 8db3 333e 70dc 0dbf cc67 0bbe 84f2 91be
000002f0: e38a 0abe 387f 91be 6437 d4bd 3bd4 af3d
00000300: f503 f53d d8ce 2b3e 0295 13bf e6f5 adbe
00000310: e10a 9abe fcb7 10be 1bf7 c0bd cc7e ce3e
00000320: 34c5 413e d6ee 5a3e 6c59 3b3c 17e0 e0be
00000330: b41e 25be d451 f93d 2bb2 123e d86b 93be
00000340: 08be b6bc dcff ea3c 8359 b7be 5dbf 75bd
00000350: f200 663e b96e b03c 6086 4ebd 0e77 823d
00000360: 59be 663d 38d3 3e3e 4c57 3e3d f800 4f3d
00000370: 248f cabd 0810 7c3d a895 e7bc d4b4 22bd
00000380: 96a7 d93c de2a 2f3e 7a25 d33e 0626 e53d
00000390: e83f 7a3d 3f1f ebbd a94f b3bc 96a2 283e
000003a0: 49a2 aa3e 995d 833e 2f51 e1be 9e3e b33e
000003b0: a83e 5b3e 7181 a93d 3b23 423e 320c 96be
000003c0: ab82 8ebe dede 88be 0e77 023e 2ed6 eebd
000003d0: afc6 9f3e 9090 6a3a f74a 15be 4732 a33d
000003e0: 973b 87be 7205 2abe aa88 583b d957 03be
000003f0: 54d5 533e a416 f93e ca33 923e 0ddc 123e
0.24982716 -0.169852 -0.13205883 0.065059364 -0.12286224 0.16411763 0.05312801 0.12082065
0.07070475 0.06925105 -0.4692136 -0.24124098 -0.12742406 0.11258096 -0.18689613 0.19071667
0.53261244 0.7534184 0.06854152 0.2519428 0.03943821 -0.22557692 -0.083258346 -1.2359822
-0.3084459 -0.6481281 -0.7382071 -0.4823465 -0.7366215 -0.35028386 -0.30643013 -0.33247778
-0.12613277 0.058518898 -0.25941306 0.7039114 0.514369 0.1318365 -0.38703823 0.35576406
-0.49328193 0.26840603 -0.19793445 0.38486394 0.22702163 0.48038775 0.35964507 -0.5752333
0.21247068 -0.44250253 -0.95918274 -0.02684429 -0.095969155 -0.059121072 0.75832516 -0.18823119
-0.1932446 -0.13978541 -0.041803855 -0.057656333 0.30023673 -0.012833718 -0.42879975 -0.15305156
0.16684075 0.47565037 0.116042785 0.21854211 0.19630724 -0.0268333 -0.19203229 -0.48276636
-0.1621209 0.086824685 0.08487351 -0.22918256 0.24892464 0.52663344 0.13804343 0.24301973
0.34419265 0.20731185 -0.13104577 0.017778842 -0.19229983 -0.36790496 -0.1960394 -0.01857865
-0.3452017 -0.30752346 -0.123361126 -0.50869095 -0.14608791 -0.5242739 0.2356854 0.5054685
0.27300382 0.26646206 0.021574816 0.45987517 0.28784963 -0.179487 0.32547653 -0.30271086
-0.10008926 -0.27899337 -0.085982494 -0.06457375 -0.60082287 -0.78437084 -0.42340887 -0.24587706
0.07794609 0.2782481 -0.035329908 0.44772378 0.53612506 0.23179282 -0.1161965 0.080992565
-0.22551791 -0.11031805 0.19153556 -0.14158434 -0.004210359 0.0018043844 -0.3229529 -0.45304015
-0.6856101 -0.16569546 -0.10119435 -1.3548933 -0.04465659 -0.56699204 0.012463248 0.38557
-0.41078 -0.24258243 -0.30446663 0.1570014 0.14443003 0.37277249 0.27610746 -0.06727629
-0.25545177 0.02065401 -0.00971796 -0.03686874 -0.08078409 -0.2724738 -0.08472231 -0.061055887
-0.028815614 0.9205349 1.2161895 0.52650034 0.7636879 0.40414804 0.33475548 0.6462824
0.47237104 0.26553068 -0.015080249 -0.34654662 -0.030288128 -0.07347868 0.08953301 0.1892903
-0.050358303 0.1495477 0.08607158 -0.0060656425 0.000538741 0.15221329 -0.090647824 0.21430176
-0.050948076 0.10888791 -0.009368433 -0.36607444 -0.049474265 0.2776529 -0.11194943 0.0706686
0.17548962 -0.55414486 -0.13613814 -0.28505337 -0.13529544 -0.28417373 -0.103621274 0.085854016
0.11963645 0.16778123 -0.5764924 -0.33976668 -0.30086425 -0.14132684 -0.09422132 0.40331113
0.18922883 0.21380171 0.011434894 -0.43920967 -0.16124994 0.121738106 0.14325778 -0.28793216
-0.02230741 0.028686456 -0.3581048 -0.05999695 0.22461298 0.021537172 -0.05042112 0.06370364
0.056333873 0.18635261 0.04646997 0.050538033 -0.09890583 0.061538726 -0.028269604 -0.039723232
0.026569169 0.17106196 0.4123953 0.11188893 0.061096102 -0.11480569 -0.02188857 0.16468272
0.3332694 0.25657347 -0.4400725 0.3500871 0.2141062 0.08276642 0.18958752 -0.2930618
-0.27834067 -0.26732534 0.12740728 -0.11661945 0.3120627 0.0008947933 -0.14579378 0.07968574
-0.2641265 -0.1660364 0.0033040443 -0.1282648 0.20686847 0.48650086 0.28555137 0.14341755

conv2.bias f4 [32]
00000000: 5262 98be 8713 acbe 9411 243e ec55 25be
00000010: e939 67bd e498 203e 1ff7 e3bd 5a64 8e3c
00000020: 6d78 d7bd 0ab6 88bd b8db 00be ef5d 11bd
00000030: 180e 86bd 13e6 8ebd b3dd 99bd bf51 a63d
00000040: e974 1bbe 1a59 03be 83f0 2a3d 8742 98be
00000050: f91b 2b3e 7d8c 093c f4f2 1e3d b455 1bbe
00000060: ebdb 153e 9cf8 36be 3598 453d e332 44bd
00000070: 77ff 40be 9c61 9cbe 177f 2c3c 6288 2abd
-0.29762512 -0.33608648 0.1602233 -0.16146058 -0.05645171 0.15683323 -0.11131119 0.017381836
-0.10521016 -0.06675346 -0.12583816 -0.035489973 -0.06545657 -0.06977477 -0.07512989 0.081210606
-0.15181316 -0.12826958 0.041733276 -0.29738256 0.1670989 0.008395311 0.038805917 -0.15169412
0.14634673 -0.17868274 0.04824086 -0.04790009 -0.18847452 -0.3054322 0.010528347 -0.04163397

fc1.weight f4 [128, 1568]
00000000: efee 52bd 81bb 4b3e ca5d ae3d 3604 0a3e
00000010: 4ffa 3e3e 5aaa 323d 213f 8fbc 6e71 153e
00000020: 9d91 733e f45f 133e 3fd6 f43d 5538 253d
00000030: 05c5 b63d ffa3 b5bd c581 233e 63be bc3e
00000040: af16 a13e 0132 5f3e 4843 aa3d 9a66 aebd
00000050: 0883 d6be a95a 8c3e 4efb 6b3e b08c 9b3e
00000060: b1a7 9a3e 3b5d bfbd fe70 12bf ab1a 19bf
00000070: de82 a93e de11 6a3e d0ab 873e 797a 5a3c
00000080: 8c31 62bf 157f a7bf 51e0 4fbf da9f 943e
00000090: 26af bd3e 23e5 e53d 18f0 6fbe 7140 93bf
000000a0: 3a8d 9dbf cd6e 50bf c12e dd3e 77c1 ac3e
000000b0: 9efe 34be 5b87 15bf 94dc 84bf a6c1 8abf
000000c0: fcbd a4be ae80 f9b9 b9e5 053e ea06 c13d
000000d0: 5e05 a33d c17f 17bc 2687 21be dec3 d8bd
000000e0: a02d 01bd 0069 033e bd16 bf3d c5b7 703d
000000f0: 8b12 663e e296 37bd 8494 8abe 15b9 073d
00000100: 56c7 9b3d c1f3 7c3d 009a 65bd 0120 e8bc
00000110: f489 84bd c144 f93c 11fe c43d a2f6 173e
00000120: 2ddc fd3d ce57 5d3d b013 f8bd ab35 60bc
00000130: e1b7 c03d 8fd0 2d3e 8a7a 4f3e 47db 623e
00000140: dd02 2a3e 06da ed3c b7bd 48bd 66cc ffbc
00000150: b234 d73d 29f8 ba3d 4dcb 8f3d b1d0 5e3d
00000160: d48c 1cbe f7ea 1ebe 8601 0dbe dfcf 5b3e
00000170: 3f41 c8bd 3b0b 88bd e208 c0bd 650e f9bd
00000180: e24e 0c3e bd7e 6a3e bd58 d33d a274 423e
00000190: 6d6c 7c3d 3bb5 243c 3c5c 07bd 6270 61be
000001a0: f777 7cbe bbc8 7d3e b142 a83d 26db adbc
000001b0: b8ed a4bd 6f9b b2bd 7e3a 35be 77c0 d9be
000001c0: ce12 533e da48 8a3d 422c 723c eda5 01be
000001d0: 6ff6 74be 87a2 5abe d49e 2bbf d8bd 553e
000001e0: 6bc5 523c dcfd 00be 4adb 99be 3dea c0bd
000001f0: 27ea da3d f829 39be c5a2 c83d 470e d8bd
00000200: da11 e9bd 798b 4dbd d950 cbbc 9f07 e33d
00000210: 7693 10bd 4016 b23d 1a6c a4bb 940e 923c
00000220: f7b2 b23c d2ff db3d 8d99 ce3d cd7a 473d
00000230: 9773 003e dac2 ff3d a57b 843e e811 af3e
00000240: f2ae dc3e ecb3 6f3e a342 5e3d 67d2 cebd
00000250: 4cfb 8bbe 91da 4b3e 593c 383e c852 9c3e
00000260: fa91 903e 5b37 313e dc27 903b a146 943d
00000270: 2ae3 673e 6f2a 123e 4884 de3d 2925 d13d
00000280: f7b1 4a3d 1322 24be 0349 9d3d 1f5f a73c
00000290: 0671 1e3d 0770 df3d 12f6 8d3d 0f3a 233d
000002a0: 0432 58be 08d0 0b3e 6159 27bd 3a98 b03c
000002b0: 5d19 1dbd c887 ee39 cfa5 01be a791 69bd
000002c0: 9edb 403e 50a8 d6ba 309a 27bd 3425 6abd
000002d0: 48f9 11be dcb4 86be eb9b b93e 21a8 873e
000002e0: a6eb 9c3d 5e9b 33bd 5eb7 33be 085c 83be
000002f0: 9870 b1bd 7087 a53e d453 f23e a029 dd3e
00000300: 0e96 153e 5b12 7ebd f022 12be 912a 0e3e
00000310: 57aa 93bd 9788 e63d 50fd 3ebd 299e 9e3d
00000320: 830f 2a3c 2821 903b 59bf 593e 130f 07be
00000330: e061 b0bc b0f2 093b f8c0 803c 113b fabd
00000340: 7e60 4c3d 185d 863c cfb6 08be 094f 783d
00000350: 6b9b 6e3d d0cc 3bbe f216 2fbe e4dc bf3c
00000360: 8823 92bd 572d 03be 9f0b 51bc 8781 08bd
00000370: e2fe a1bd 8573 c1bd 446b c23d 49e8 eabd
00000380: a586 89bd d8d9 b6bd 9305 8e3b 7fa7 87bd
00000390: ee73 2a3e 0952 763e d729 4cbe a1ec 3c3d
000003a0: fe8f 023e 04ff f33c 5787 6a3d 8bba 6f3e
000003b0: 585b 673d 4629 bcbe 1bc7 f33c b358 393c
000003c0: daea 843e eb07 ae3e b81c 8b3e 1fd9 a5be
000003d0: 0ba6 d7be e496 b3bd 3e75 603e 8bb0 533e
000003e0: 29fa 773e 94c5 993d 53cb a4bd a48a 8cbe
000003f0: 54d0 603e 9cba 8b3e 9ab7 3d3e 6a96 9ebd
-0.051497396 0.19895746 0.085139826 0.13478169 0.18650173 0.04361949 -0.017486157 0.14594051
0.23786016 0.14392072 0.11954927 0.040336926 0.08924297 -0.088691704 0.15967472 0.36864004
0.3146262 0.21796419 0.08313614 -0.085156634 -0.41896844 0.27412918 0.23045084 0.30380774
0.30206063 -0.09343954 -0.5720366 -0.5980632 0.33107656 0.22858378 0.2649827 0.013334864
-0.8835685 -1.3085657 -0.81201655 0.29028207 0.3704769 0.11225345 -0.23431432 -1.1504041
-1.2308724 -0.8141907 0.43199733 0.33741352 -0.17675254 -0.5840966 -1.0379815 -1.0840347
-0.32176197 -0.00047588855 0.13075913 0.09425147 0.07960008 -0.0092467675 -0.15774211 -0.10584234
-0.031537652 0.12833023 0.09330509 0.058769006 0.22468011 -0.044821627 -0.27066433 0.033135492
0.0760638 0.0617559 -0.05605507 -0.028335573 -0.06471625 0.030428292 0.09618772 0.14840177
0.12395511 0.054038815 -0.1211313 -0.01368467 0.09410072 0.1697409 0.20261589 0.2215396
0.16602655 0.029034626 -0.04900905 -0.031225394 0.10508098 0.09129364 0.070211984 0.054398242
-0.15288097 -0.1551932 -0.13770112 0.21466015 -0.0977807 -0.06642767 -0.09376694 -0.12160949
0.13701966 0.2289991 0.1031966 0.18989804 0.06162684 0.010052974 -0.033046946 -0.22015527
-0.24655138 0.24783604 0.082158454 -0.021222662 -0.08053154 -0.08721053 -0.17698094 -0.42529652
0.20612642 0.067521766 0.01478106 -0.12660952 -0.23922132 -0.21351062 -0.6703923 0.20873201
0.012864451 -0.1259684 -0.30050117 -0.094196774 0.10689192 -0.18082416 0.09796671 -0.10549598
-0.11380358 -0.05018184 -0.024818825 0.11085438 -0.03529688 0.0869565 -0.0050177695 0.017829217
0.021813853 0.10742153 0.10087881 0.048701096 0.12544094 0.12488337 0.25875583 0.3419335
0.43102223 0.23408478 0.05426277 -0.10098725 -0.27340162 0.19907595 0.17991771 0.30531907
0.2823637 0.17306273 0.004399283 0.07240034 0.2264525 0.14274 0.108650744 0.10212166
0.049486127 -0.16028623 0.076799415 0.0204311 0.038682006 0.109100394 0.069317 0.03985029
-0.2111283 0.13653576 -0.040856723 0.021556962 -0.038354266 0.00045496062 -0.12660907 -0.05702367
0.18833777 -0.0016377065 -0.04091853 -0.057164386 -0.1425525 -0.2630986 0.36251768 0.2649546
0.07662134 -0.04384934 -0.17550418 -0.25656152 -0.08664054 0.32329893 0.4732958 0.4319582
0.14608023 -0.062029224 -0.1427114 0.13883425 -0.07210224 0.11256521 -0.046628296 0.077450104
0.010379675 0.004398484 0.212644 -0.13189344 -0.021531045 0.0021049194 0.015717015 -0.12218297
0.04989671 0.016401812 -0.13350986 0.06062225 0.058253687 -0.18339849 -0.17098597 0.023420759
-0.07135683 -0.12810265 -0.012759118 -0.033326652 -0.07909943 -0.09445862 0.094931155 -0.11470086
-0.067151345 -0.08928269 0.0043341606 -0.06623744 0.16645786 0.24054731 -0.19937836 0.046124104
0.12750241 0.029784687 0.057257976 0.23411004 0.056483597 -0.3675024 0.029758027 0.011312651
0.25960428 0.33990416 0.27170348 -0.32392213 -0.42118868 -0.087690145 0.21919724 0.20672815
0.24216522 0.07508388 -0.080465935 -0.27449524 0.21954471 0.2729081 0.1852707 -0.07743533

fc1.bias f4 [128]
00000000: 0868 2fbe 9eaf c4bc e15a 08bd 79e8 09bd
00000010: 10fc 9fbc a494 00be 4a66 343c a9d0 bbbd
00000020: 0451 20be 4a7c 13be 4bc3 2abc 9a2e 35be
00000030: 11c7 13be e483 a1bb 6653 82bc 2aa4 c2bc
00000040: 8762 49bc c0be b3bd 5ae4 72bc 5613 aa3d
00000050: cfb6 b2bd 2a40 04bd 59a5 ce3d 6e19 86be
00000060: 3d85 01bd 864d 123b 950f 6b3c 169c 76bb
00000070: 1fef babe 2323 4bbc 6882 aebd cbb6 a7be
00000080: fcc7 e53b afcc 02bd 62c7 01bb c0db 00bd
00000090: 2850 f7bd be80 5fbc a922 6dbe f64c aa3d
000000a0: b5b4 ebbc 7b93 b9bd 54ca d2bc 510c 90bd
000000b0: 60fe e3bd eedb efbd e167 4fbd b9aa c2bc
000000c0: f92e 02bd 445b 2a3d 442a b1bb e8e3 37bd
000000d0: 4fb1 18be 57e6 f6bd 14d1 a5bc f35a 53bd
000000e0: 98e5 2cbd 44d1 873d a1ed 09be 040a b4bd
000000f0: 9729 b2bc e1a1 80be ed5f 39be 1437 5cbd
00000100: e975 323e 0d7c 5cbe 359a d0bc bf98 11bd
00000110: 7dbe 063e 0dd1 18bc d6da c83d cc35 c5bc
00000120: 953f e6bc f62f 05be e8ab ad3d 5816 90bc
00000130: 233b 9cbe 5e31 0bbe 69d3 a4bd 70e2 66b8
00000140: 68cd a4bc 5712 563d caca 21bd 9e00 f2bc
00000150: c5a4 77bd 0c84 fa3c 9028 283e 53aa 18bd
00000160: 72ed 0cbe 5a36 31be 0f2a b73d b12c b0bd
00000170: caa3 01be febd 47bd bc47 08bc 31da c1bc
00000180: 0c70 123c ecad f73d d2f5 d2bd 4257 efbc
00000190: a841 a7bc c173 eebd f5f2 c7bd b77c 30bd
000001a0: 63e2 1ebe 3da6 bebc 2b0d e5bd e549 b1bd
000001b0: f562 0a3d 3562 b73b b070 09bd 2ea4 c5bd
000001c0: 2a47 4cbc 1d7e 98be 5c90 23bd 0cd6 f2bc
000001d0: 88ae 62bd 7327 5ebd daf5 27bd b7cc 82be
000001e0: 2a1e 84be 35fd 20bd 09f5 4ebe a3d6 c9bc
000001f0: 7809 c9ba 65ee e6bd eee3 c7bd 7cba 4bbc
-0.17129529 -0.024009522 -0.033289794 -0.03366897 -0.019529372 -0.12556702 0.011010716 -0.09170658
-0.15655905 -0.14402881 -0.010422538 -0.17693558 -0.14431407 -0.0049290527 -0.015908908 -0.02375992
-0.012291557 -0.08776617 -0.014824951 0.08304469 -0.08726274 -0.032287754 0.10090131 -0.26191276
-0.031621207 0.002232404 0.014346977 -0.0037629656 -0.3651056 -0.012398514 -0.08520967 -0.32756647
0.0070123654 -0.031933483 -0.001980268 -0.03145957 -0.120758355 -0.013641534 -0.23157753 0.083154604
-0.028772691 -0.09061333 -0.025731243 -0.07033599 -0.111325026 -0.1171187 -0.050636176 -0.023763048
-0.031783078 0.041590944 -0.00540665 -0.044895083 -0.14911388 -0.120556526 -0.020241298 -0.051600408
-0.042211145 0.06631711 -0.13469554 -0.08790973 -0.021748347 -0.25123504 -0.18102999 -0.053763464
0.17427792 -0.21531697 -0.025464157 -0.03554606 0.13158603 -0.009327185 0.09807365 -0.024073504
-0.02810649 -0.13006577 0.08480054 -0.01758878 -0.30513868 -0.13593051 -0.08048136 -5.504716e-05
-0.020117477 0.052263584 -0.039500035 -0.02954131 -0.06045987 0.030580543 0.16421723 -0.03727181
-0.13762453 -0.1730589 0.08943569 -0.08602274 -0.12660137 -0.048765175 -0.008317884 -0.023663612
0.008937847 0.1209372 -0.10300793 -0.029216412 -0.02041705 -0.11643172 -0.09763137 -0.043087687
-0.15516047 -0.023272628 -0.11184152 -0.086566724 0.03378578 0.005596424 -0.033554733 -0.096504554
-0.012468139 -0.29783717 -0.039932594 -0.029643081 -0.055342227 -0.05423684 -0.041005947 -0.2554681
-0.25804263 -0.039303977 -0.20210661 -0.02463848 -0.0015337905 -0.11275939 -0.09760271 -0.012434598

fc2.weight f4 [10, 128]
00000000: dfcb 36be bc69 15bc f111 55bd 3b4d 8e3d
00000010: 7bb5 3a3d e7f8 19bd 1442 99be a113 09be
00000020: 9998 8e3e 76e0 81be 1b63 84be 3c86 313e
00000030: 2cbd 8e3e 0036 4fbc 3a7a 96be 38c9 c43c
00000040: f2c1 51bd e790 fabc 2fa0 6a3d b180 093d
00000050: c017 17be 24be 68bd 72cc e33d 8a8a 043e
00000060: 71eb 5abd fad7 113d 5ca0 4fbd 895c f33c
00000070: cd1d a83e 54fb a23e 0861 a1bd acb0 433d
00000080: 7f6b a13d 42b8 5abd cf7c 4c3d 771e a2bd
00000090: 840a b0bd 9583 94bd 676f 08be 9a20 82be
000000a0: 6b68 2d3d a0d1 01bd 943a 36bd 73e1 82bd
000000b0: 3854 133e 23cb 1c3e e69e f43c f842 423d
000000c0: 8226 9a3d 7213 c9be 723d 95bc fa44 aebd
000000d0: c877 36be a476 71be 1ea0 523d 3893 16bd
000000e0: b696 72bc dbe6 9abe 163b bf3d 92ab 3abd
000000f0: c10f d0be f887 443e 19b2 06bd c10a 0abe
00000100: cc3a 4ebe 7dfe 47be 870e 4c3c 5c6f d73d
00000110: 07d5 1cbe d43b 9c3d 944f 96be be22 67bd
00000120: 0f9e 3a3e c78f 3ebc bbd1 6d3d 5e13 6e3d
00000130: 568d 17be fd6c 9c3e e28c 1fbe b62b 973d
00000140: 17eb 9dbb f3d4 7cbe b102 603c 93aa 56bd
00000150: c89b 183d 7b7b 0ebe aa09 e5bd 69ea bebe
00000160: 4f05 823e 8800 d23d 069e f6be 34e7 9abe
00000170: 4819 fabc 7e3b 91bd d82e 273d 2b78 ecbb
00000180: 4fc3 9fbd 31b9 59be 1913 30be 3369 86bc
00000190: b18c babd ab04 853d dcd2 0ebe 91e3 f6bd
000001a0: fa96 d5bd 6e45 42bd b36a d43d 201c 583e
000001b0: 2ad8 a1be 17c0 37bc 26fa 1e3d fdc5 9ebc
000001c0: 214d 3c3d 3001 c2be 08ac 313d 1584 0f3d
000001d0: 9440 debd c05b e9bd 2f13 95bc 7951 933e
000001e0: 8fbb e13d 5036 223e 2494 b43e eb33 03bd
000001f0: 2917 e43c 2e46 7c3e 2123 01bf 709a 13bc
00000200: 16f3 593e d290 82bc 83bb 8ebd bcb4 94bd
00000210: a321 1a3d 077a 693e 6ef0 d1bc ccf5 a93e
00000220: f5ea d8bd fed0 ffbe acdd 313e 4e71 57be
00000230: 1666 2abf 2815 81bc 91c3 8abd 0bc4 8abd
00000240: 9429 793d 0246 e3bd a72a 06bd 07f0 0dbe
00000250: 003d 69bc 87bd 4bbc 003a fbbe 167e 9ebe
00000260: 5dce 28bd 49f9 1dbd ecf0 0f3c 1859 09bd
00000270: 9528 b4bd 0d5f 9d3e e048 c4bc 827d 333d
00000280: abd7 5f3e 11ac 2e3c 0c02 d93c b8c0 94bc
00000290: 01b2 c23e 722c 583d 1f9e 4abe 39ee 673e
000002a0: bb0c 5cbc 9921 6abe 2269 fabc 8962 d2be
000002b0: 8102 943c 5986 1fbf 4c67 b03c be2d 2ebd
000002c0: bca4 71bd 8323 6ebe 912a 013d b6f4 4bbd
000002d0: 6e11 0e3d e568 86bd 2cd8 90bd c2d0 793d
000002e0: 2337 edbd 892d 673e ce90 04bf 278c f93d
000002f0: ce57 7d3e c401 573e f657 dbbe 78e7 83be
00000300: 9d7d 263e 62c0 e93d 1916 b23a 4fb8 9bbd
00000310: a0b3 e03c aaae a7bd a32e 76be 5697 04bd
00000320: f6a6 c2bd 6acb 923e 2ab9 68be 3c65 91bc
00000330: 4c1a a23d d52b a93e 0c13 9bbe 203d e7be
00000340: bd3a 02bd 2a70 913c 19ca 8ebc ac39 05bd
00000350: 0315 ccbd 18b7 953d f6c3 85be 8981 033e
00000360: 69dc 563e 95a0 9bbc c98b d2bb f3b1 8c3e
00000370: 2d98 cc3d f672 b5bc f44a 133d 1864 513d
00000380: 9080 abbc ec06 e2be eb17 0c3e 6519 5b3d
00000390: c78a f53a 0137 e13d 3873 a3be 2fa4 893e
000003a0: 65a9 e33c 69d8 8bbe f5ce d9bd 8f5f fd3d
000003b0: 3b33 b63d 2520 6f3c 60eb a33a affc 143d
000003c0: 7db6 5fbc fac6 d0bc 2ebc 803c 8b01 87bd
000003d0: c811 0bbd 563d 32bd cf3c afbd 72e9 083e
000003e0: d08c ddbe c97e 973e 7039 23be 82e8 afbe
000003f0: 2a5e 27bc 40d0 b0b7 67e1 8cbd 30f6 a33d
-0.17851208 -0.009119447 -0.052019063 0.06948324 0.04558323 -0.037590887 -0.29933226 -0.13386394
0.27850798 -0.25366563 -0.2585686 0.17336363 0.27878702 -0.012647152 -0.29390126 0.02402173
-0.05121035 -0.030586673 0.05728167 0.033569995 -0.14755154 -0.056821957 0.11122979 0.12943473
-0.05344719 0.035606362 -0.05069004 0.02970721 0.32835236 0.31832373 -0.07879835 0.04777591
0.078818314 -0.05339838 0.049923714 -0.07915967 -0.08595756 -0.0725166 -0.13323747 -0.25415498
0.04233591 -0.031694055 -0.04448946 -0.06390657 0.14387596 0.15311866 0.029860925 0.047427148
0.07526876 -0.39272648 -0.018217776 -0.0850925 -0.1781913 -0.23580414 0.05142223 -0.036761492
-0.01480644 -0.30254254 0.093374416 -0.04557378 -0.4063702 0.19192493 -0.03288469 -0.13480665
-0.20139617 -0.19530673 0.012454635 0.10519287 -0.15315638 0.07628599 -0.29357588 -0.056429617
0.18224357 -0.011630959 0.058061343 0.05812394 -0.14800009 0.305519 -0.15581086 0.07381384
-0.0048192847 -0.24690609 0.013672517 -0.052408766 0.03725794 -0.13914292 -0.11183484 -0.37288216
0.25394675 0.102540076 -0.48167437 -0.3025452 -0.030529633 -0.07091425 0.040816158 -0.0072164736
-0.07800924 -0.21262051 -0.17194785 -0.016407585 -0.09108866 0.06495031 -0.13947624 -0.120551236
-0.10429187 -0.047429495 0.10371914 0.21104479 -0.31610233 -0.011215231 0.03881278 -0.019381518
0.045971993 -0.3789153 0.043376952 0.035038073 -0.10852161 -0.11394453 -0.018197624 0.28773096
0.11022102 0.15841031 0.35269272 -0.032031935 0.027843075 0.24636146 -0.5044423 -0.009008989
0.21284136 -0.015938196 -0.06969359 -0.07261035 0.037629735 0.22800456 -0.025627341 0.3319534
-0.105916895 -0.49964136 0.17369717 -0.21039316 -0.6656202 -0.015757158 -0.067755826 -0.067756735
0.060830668 -0.11097337 -0.03275552 -0.13861094 -0.014235735 -0.012435324 -0.49067688 -0.3095557
-0.04121243 -0.038567815 0.008785468 -0.033532232 -0.08796803 0.3073658 -0.02396053 0.043820865
0.21859615 0.010661141 0.026490234 -0.018158302 0.3802643 0.05277676 -0.19786881 0.22649468
-0.01343077 -0.22864379 -0.03056771 -0.410908 0.0180676 -0.62314373 0.02153363 -0.042524092
-0.058994994 -0.23255734 0.031534735 -0.04979392 0.03468459 -0.06562976 -0.070724815 0.060990103
-0.11582782 0.22575964 -0.51783454 0.12184935 0.24740526 0.20996767 -0.42840546 -0.25762534
0.16258855 0.11413647 0.0013586908 -0.076035134 0.027429402 -0.081876114 -0.24041228 -0.032370888
-0.095045015 0.28670818 -0.22726884 -0.017748468 0.07915172 0.33041254 -0.3028797 -0.45163822
-0.0317943 0.01775368 -0.017430352 -0.032525703 -0.09964945 0.07310313 -0.2612607 0.12842382
0.20982517 -0.01899747 -0.006425355 0.27479514 0.09989963 -0.022149544 0.035960153 0.051120847
-0.020935327 -0.44145906 0.13680999 0.053491015 0.0018733375 0.10996819 -0.31923842 0.26883075
0.027790735 -0.27313545 -0.10635177 0.12371742 0.0889649 0.014595066 0.001250606 0.03637379
-0.013654348 -0.025485504 0.015714731 -0.06592091 -0.033952504 -0.043515526 -0.0855652 0.13370302
-0.43271494 0.29588917 -0.1593988 -0.34357077 -0.010215322 -2.1077809e-05 -0.068789296 0.08005941

fc2.bias f4 [10]
00000000: 6e09 f9bd 468d 6ebb 0f27 e3bc 7bb8 d13e
00000010: 4e28 7e3e ed24 043e 15bd aebe 01bf 823d
00000020: ebfc 6f3c 5366 13be
-0.12160002 -0.0036400123 -0.027728586 0.4096106 0.24820063 0.12904711 -0.34128633 0.06384087
0.014647703 -0.14394502
